src/model/supervised_pinn.pt (torch, 40617 bytes, 19 tensors)

fcs.0.weight f4 [32, 4]
00000000: c6c7 05bf e0f1 223e 394b 08bf f585 32be
00000010: 4cb8 5ebe fc9d 833d 9a23 d0be 2565 033f
00000020: e98d b1bd 635f 2f3e afee a23e 0134 d2be
00000030: 42f2 d4bd 481a 21bd 8f17 bdbe 480d 96be
00000040: 1503 493e 5113 293e 77ec bf3e 6d52 7c3e
00000050: 029b 06bf 8a61 633e 4e73 df3c 9f16 b73e
00000060: 8c20 c9be c05e 8abe 1194 eabe 00a7 98be
00000070: 164d ce3e 5f15 113e 8ba0 8fbe 8249 173e
00000080: f72a 8f3d df7c 0d3e 8978 0fbf 065e 313d
00000090: fcb3 cc3e 706d 563c 582b 60be ca48 c1bd
000000a0: 9b1e 143e 8d99 21be 8aa1 5dbe 2de1 d33e
000000b0: 87e6 69be c001 3abc dc28 56bf ad17 b3be
000000c0: 4856 d1be e74a 963e 6d38 483d 1a50 333e
000000d0: b5c0 e0bb edce 37bd 98ad d4bd 6bc7 e3be
000000e0: d6ca a13e 3ff8 dd3d 06e0 9bbe 11f1 e43e
000000f0: 098c d2bc a154 4b3e 69ee a1be 86d7 023f
00000100: 85a9 e4be 74ef 543e 3ccb 20be 784c 04be
00000110: c133 4ebe c8a9 173f 7bf6 9bbe 92ef 06be
00000120: c7fc 93be 1ef6 003d 49f9 823e 6e6f cbbd
00000130: 6a5b d5bd 562f 5bbe 68b1 053e 49e8 7ebe
00000140: ed9c a83e e2d6 0b3d 6e0d d73e 56aa a2be
00000150: 186d 7dbe ef9b 773e 6494 15be e70f 03bf
00000160: dbca fcbc cdab 99be e443 b23e ae85 663e
00000170: f133 debe b89b 163e 4c7d 5d3e ca54 f4be
00000180: d45e 70be b3eb 6bbe dee9 02bf caa9 913e
00000190: 7327 b4be 0df2 a8ba e86f 9e3c 84ed ef3e
000001a0: 5e66 02be 4bd7 c23e ebf3 57be fadf 0cbd
000001b0: aeb7 12bf 403d 3fbc 21c4 e73d 0fd3 a43e
000001c0: 8fd3 54be 7192 ccbd c6f4 3cbf 7b3c 943e
000001d0: aacd 783e 13e0 8ebd 8c63 efbe 091c 26be
000001e0: 17f5 5bbe 8a26 0abe 1288 10be da09 5dbe
000001f0: 4b55 263e 23be d33d b912 283e 29d2 ebbe
-0.52257955 0.1591258 -0.5323978 -0.17433913 -0.21749991 0.064266175 -0.40652162 0.5132621
-0.08669645 0.17126231 0.31822726 -0.410553 -0.103977695 -0.039331704 -0.36932036 -0.29307008
0.19630082 0.16511275 0.37485096 0.24640818 -0.52580273 0.22205177 0.027276661 0.35759446
-0.39282644 -0.27025414 -0.4581609 -0.2981491 0.40293187 0.14168309 -0.28052172 0.14774135
0.06990617 0.13817166 -0.560433 0.04330256 0.39981067 0.013087615 -0.21891534 -0.094377115
0.144648 -0.15781231 -0.21643654 0.41382733 -0.22841845 -0.011352956 -0.83656096 -0.34979
-0.4088614 0.2935402 0.048881937 0.17511025 -0.00685891 -0.044875074 -0.10384673 -0.4448808
0.31600064 0.10838365 -0.30444354 0.4471517 -0.02570154 0.19856502 -0.31627205 0.5111011
-0.44660583 0.20794469 -0.15702528 -0.12919796 -0.2013693 0.5924344 -0.30461487 -0.13177326
-0.2890379 0.031484716 0.25580814 -0.09933363 -0.104178265 -0.21404776 0.13055956 -0.24893297
0.32932225 0.034140475 0.42002434 -0.3177058 -0.24748647 0.24180578 -0.14607388 -0.5119614
-0.030858448 -0.30013886 0.3481742 0.22511932 -0.43399003 0.1470784 0.21629828 -0.4772094
-0.23473674 -0.23039131 -0.51138103 0.2844985 -0.35186347 -0.001288952 0.01934047 0.46860898
-0.12734362 0.3805488 -0.21089141 -0.03439329 -0.5731152 -0.011672318 0.113167055 0.32192275
-0.20783828 -0.09988869 -0.73810995 0.28952393 0.24297205 -0.069763325 -0.46755636 -0.16221632
-0.21480213 -0.13491264 -0.14114407 -0.2158579 0.16243474 0.10339 0.16413392 -0.46058777

fcs.0.bias f4 [32]
00000000: efb4 b2be f3a9 833e 0fda 033e fdfd 8ebd
00000010: bf02 113f 52df 2abf 811f f0bd a8f0 f83d
00000020: c835 0bbf a71b 143f 8c73 a43e 722d 623f
00000030: 9fc8 a3be c6d1 f5be f5da 23bf 6c14 0c3f
00000040: f8f7 39be e094 2c3e a97f 3b3f 7576 b13d
00000050: 7b60 283e 4fcd acbd 2741 743e acdd 133f
00000060: c3a2 a83e 03a7 e23e 2aa8 9f3e f8fb 66bf
00000070: 328b 36bf f732 7dbe 1898 6d3e 51e6 5fbe
-0.34903666 0.25715598 0.12876152 -0.06982038 0.56644815 -0.6674701 -0.11724759 0.121552765
-0.5437894 0.57854694 0.32119405 0.88350594 -0.31989 -0.48011607 -0.64005977 0.5471866
-0.18160999 0.16853666 0.7324167 0.08665172 0.16443054 -0.08437597 0.23852979 0.5776012
0.32936677 0.44268045 0.31182986 -0.90228224 -0.71306145 -0.24726473 0.2320255 -0.21865202

fch.0.0.weight f4 [32, 32]
00000000: ca5f 4ebe de69 443e 9865 9bbd 6eb7 88bb
00000010: c0c3 2f3d 8163 fcbd 2d9d 23be 3300 8bbd
00000020: c813 c3bd 1787 3c3e 399c b83e 95f0 4c3e
00000030: 9970 b43d ae26 a7be 23c9 d5bd 90d8 893e
00000040: db81 103d 47e5 d5bd ba43 483e 10fa ec3c
00000050: 94ae e9bb f5bd febd ec16 463e a3ab 97bd
00000060: 9c62 5e3c 16b1 593e 29e0 8a3d 9fe2 923d
00000070: 2395 ea3d 457c f6bd e232 433e 7a51 7ebe
00000080: 7e73 41be 09c7 e0bd 5108 d63c 6841 d8bd
00000090: 767a 35be fcbd 803e aacb 39bd 0cac b0be
000000a0: d1d1 3b3c 3158 e4bb f16b 23be 44f5 28bb
000000b0: b79f 97bc 4b42 953e bf0b 23bd a1ac 91be
000000c0: 1c70 bf3d c23c 18be 6327 583d 54ae f03d
000000d0: a15e 293d 569b 4abd 7dd8 82bc 7f45 3a3d
000000e0: 8021 4fbb 18ee 42be 17ec 30be 00a4 6f3e
000000f0: cd2c 813d d01f 8f3d 9040 643d 19e0 183e
00000100: d236 2f3e 09e9 ba3c c06a 93bd 9c06 8f3e
00000110: cfe3 a4be df50 66bd d32b 023d 85fc 31bd
00000120: 4581 803e 81fd f93c 42c3 f6bd 65e5 163d
00000130: 376a a03d a05a 873e d006 1d3d a076 23bd
00000140: 7b61 8bbd b31e 8fbd 5153 88bd d506 d03d
00000150: 2dc7 4fbe 1cee 2b3e 0fb3 01be 8cf4 89be
00000160: c114 933d 05ed d6bd dccc b8bd fe4a 893d
00000170: 9055 e03e 05c2 833e e284 363e 8c46 6abd
00000180: 9e81 10be 9fe9 38be 2a91 5b3d 2f97 113e
00000190: 9fee 01be 9add fe3d d652 723e d697 59be
000001a0: 5ee0 f13b cebc 19be ab07 91be ced5 b43d
000001b0: 4110 153e 081c 213e be1c 47be 307b debe
000001c0: 8f56 ef3d d904 f23d c7c2 993d c7c5 343e
000001d0: 6088 5a3e 5b47 b03d 0554 8bbd 05d9 373e
000001e0: a469 46be b14d 02be ad72 1fbe b617 6e3e
000001f0: c2d5 3cbe e1a6 41be 1ca9 91bd 594b 72bc
00000200: bb2f 4b3b 950e 47bd 8ad3 68be eebb f6bc
00000210: 5dab 6fbb 2860 e33d d8ba f7bd f566 713e
00000220: 88ba 7d3e d4cf 2bbd bdd7 40be 9706 26be
00000230: 24fc d5bd 5b65 3f3e e82a c53e 1662 ca3d
00000240: 642f 3b3e 4a20 cebd 3508 7abb bf70 d6bd
00000250: 3269 cebd f9f7 ca3c a730 9f3d fd17 ddbe
00000260: 4689 1f3c a680 383d 1ced 833b 21ce a4bd
00000270: 7e57 1c3e 0160 673e f23e 9e3c 48a8 edbd
00000280: 78c6 71be fe23 53be 4ae4 15bd db03 e9bd
00000290: c87d 883d 8f45 0a3d f8f2 9abd 250f 07bd
000002a0: 72a2 c6be c50a c7bc 9656 b6bd 7f31 70bd
000002b0: da5f 90bd 7fab 88bd 76fe 2bbe ffe8 8a3d
000002c0: 0894 46bb 0731 dfbd 5b06 6e3d c81d 803e
000002d0: 7b00 2abc af13 d2bd 2237 813c 23e5 883e
000002e0: 414e 173e f67a adbc ef42 f43d 32bf 683c
000002f0: 764b 6cbe 130f 0abe 4be2 823d 18d2 16bc
00000300: 56e0 d8bd 5743 303e 06a0 973d cb17 953b
00000310: 4e45 f2bd 046e 1bbe 960d d73c 9f90 6f3e
00000320: ccc1 d63d a9af cebd c143 853d ad8e 66be
00000330: cf2d c0bd 5c66 4d3e 2c1e 9e3e 4c28 f2bd
00000340: d6e3 033d f519 8abb abf6 34be eecb 413d
00000350: de56 523d 88c2 e8bd cd2f eb3c 3f76 b2be
00000360: 8c7a 40be 22f5 673e 07d5 1ebe 92cc 1c3e
00000370: d229 0f3e 12a5 6dbc 3c47 93bd 3f93 613d
00000380: 9622 8a3e 7785 643d 6856 3e3e 19b9 c1bd
00000390: ef26 f23d dc42 2d3e 840c 823e 9bc8 1bbe
000003a0: 97be 2abd 6b4e b3be d93e 49be b464 c3bd
000003b0: 4764 133e 18b5 3b3e 5815 ff3b 73d2 d6bd
000003c0: 75d1 e9bc c5e9 423d 45b7 34be 7e74 893c
000003d0: 097d 23be 34a7 573e 7ded 23be e4fc 993e
000003e0: d4b2 403e a590 b0bd f9fe 513d c200 9a3e
000003f0: 365f 0d3e 8745 8abd c773 e6bd 2d55 bebd
-0.20153728 0.1918101 -0.07587737 -0.004172257 0.04291129 -0.12323666 -0.15977927 -0.067871474
-0.09525257 0.18410908 0.36056688 0.2001365 0.08810539 -0.32646698 -0.104387544 0.26923037
0.03528009 -0.10444122 0.19557086 0.028927833 -0.007131407 -0.12438575 0.19344682 -0.07405784
0.013573315 0.21258959 0.067810364 0.07172131 0.11454227 -0.12035421 0.19062379 -0.24835768
-0.18891713 -0.10975463 0.026127012 -0.1055935 -0.17722496 0.25144947 -0.045360245 -0.3450626
0.011463598 -0.006968521 -0.15959145 -0.0025780955 -0.018508775 0.2915214 -0.039806124 -0.28452018
0.09347555 -0.14866927 0.052771937 0.117520005 0.04135001 -0.049464546 -0.01597237 0.045476433
-0.003160566 -0.19036138 -0.17277561 0.23402405 0.06307373 0.0698849 0.055725634 0.14929236
0.17110756 0.022816198 -0.07198095 0.2793473 -0.32205054 -0.05622947 0.031780075 -0.043453712
0.25098625 0.030516388 -0.12048961 0.03683986 0.07832759 0.2643633 0.038336575 -0.03990805
-0.06805702 -0.06988277 -0.06656516 0.10157553 -0.20290823 0.1679005 -0.12665962 -0.26944387
0.07181693 -0.10494427 -0.09023449 0.06703757 0.4381528 0.25733963 0.17824128 -0.057196185
-0.14111945 -0.1805787 0.053605236 0.14217828 -0.12688683 0.12444611 0.23664412 -0.21249327
0.007381483 -0.1501343 -0.28326163 0.088298425 0.14556982 0.1573335 -0.19444558 -0.4345336
0.116864316 0.11817331 0.07507854 0.17653571 0.21341085 0.0860736 -0.06803135 0.1795388
-0.19376236 -0.1272495 -0.15571089 0.23251233 -0.18440917 -0.18911316 -0.07112333 -0.014788472
0.0031003791 -0.04859789 -0.22736946 -0.030118909 -0.0036570646 0.11102325 -0.120961845 0.23574431
0.24778187 -0.041946247 -0.18832298 -0.16213451 -0.10448483 0.18691008 0.38509297 0.0988199
0.18279797 -0.100647524 -0.0038151864 -0.10470723 -0.10078658 0.024776446 0.077729516 -0.43182364
0.009737318 0.045044564 0.0040260684 -0.080471285 0.1526775 0.22595216 0.019317124 -0.11604363
-0.23610866 -0.20619199 -0.036594667 -0.113776885 0.06664616 0.033757742 -0.07565874 -0.032973427
-0.3879581 -0.024297128 -0.08903234 -0.058640953 -0.07049532 -0.06673335 -0.16796288 0.06782722
-0.0030300636 -0.10898023 0.05811153 0.2502272 -0.010376091 -0.102576606 0.01577336 0.26737317
0.14775945 -0.021176796 0.11926829 0.014205741 -0.23075661 -0.13482313 0.06390818 -0.009205364
-0.10589664 0.17213188 0.07403569 0.0045499555 -0.11829625 -0.15178686 0.026251595 0.23395012
0.104861826 -0.10092098 0.06507064 -0.22515364 -0.09383737 0.20058578 0.30882394 -0.11824092
0.032199703 -0.00421452 -0.17672221 0.047313623 0.051352374 -0.11365229 0.028709317 -0.3485584
-0.18796748 0.22652104 -0.15510951 0.15312412 0.13980797 -0.014504688 -0.07191321 0.055072065
0.26979512 0.055791344 0.18587649 -0.09459133 0.11823832 0.16920036 0.25400174 -0.15213244
-0.041685667 -0.35020766 -0.1965288 -0.09540692 0.14393722 0.183308 0.007784527 -0.10489359
-0.02854226 0.04758622 -0.17648037 0.01677918 -0.15965666 0.21059877 -0.16008563 0.30075753
0.18818218 -0.08621339 0.05126855 0.30078703 0.13805851 -0.067515425 -0.112525515 -0.0929359

fch.0.0.bias f4 [32]
00000000: 4546 063e 3f3a 69be d489 af3d 0d05 edbc
00000010: 798c c8bd d97b 003e 4845 803d 63e6 013d
00000020: 0e46 b33c 3f0b 79be 16ba 0dbe e4c3 c8bd
00000030: 48e7 a63e 8b0b 5abe f56b 713d 7d59 a1be
00000040: 070b 42bd 47f3 783b 5a6c 193e 99dc 6b3e
00000050: 7347 17be a297 26bd 5bed 7cbd 74e4 9dbd
00000060: 2333 48be 71aa debd 5b87 ebbd 4e4a 7f3e
00000070: 5aae 58be 0820 de3d 7923 a73a 3d0c 0cbe
0.13112743 -0.22776125 0.085712105 -0.028933072 -0.09792418 0.12547244 0.06263214 0.031713855
0.02188399 -0.24320696 -0.13840517 -0.09802988 0.3259833 -0.21293466 0.058940846 -0.31513587
-0.047373798 0.0037986801 0.14982739 0.2303337 -0.1477335 -0.040671952 -0.061749797 -0.077095896
-0.19550757 -0.10872353 -0.115004264 0.24930689 -0.2116026 0.10845953 0.001275166 -0.13676544

fch.1.0.weight f4 [32, 32]
00000000: 9891 a3bd 8517 093e 8606 d4bd f530 36be
00000010: 7e92 4c3e 2bf3 253e 5fe7 d03d 99a1 16bd
00000020: 8a20 3e3e fecd 463e dd95 e2bd 1334 373d
00000030: 6aa0 e0bc 3a3d 3b3e f77c 4ebe 1276 d03d
00000040: 99d3 0c3d 8b30 1fbe 2dad 74bd 6fcf d73d
00000050: 3d26 52bd ae84 ecbd 7077 d3bd 93de 073e
00000060: 7f06 88be b05b 5abe 72ca ad3d 8914 f8bd
00000070: 0010 2bbe 29ed cbbd 9e8e 773b 9bf2 f43e
00000080: 4c4e d93d 4e8c a2be 3d7e 2c3d 51b0 b8be
00000090: cf68 d43d dd78 8dbc bd13 a3bd 6ec2 723d
000000a0: 6cf2 153e 43fe 76be 203e 83be 84c0 91be
000000b0: 7d18 6d3e f696 e03d e7f2 0dbe 231a 3e3e
000000c0: 6a34 71be f0ab 21be 337d 133e b1f2 34bb
000000d0: 05db 5cbd 72ae 57bd 248c b73d 949c febd
000000e0: 24bb 73bb 4623 9ebe 0cbb d13e e703 a63e
000000f0: 3eb2 06be be35 443e 66eb 88bd 6e2a a0bd
00000100: 65d7 2c3e 6f73 0a3d 1006 1b3e 8e8d 0c3d
00000110: fc55 67bd ee6d 123e 9e45 8dbb a450 c43c
00000120: ea13 243e fafb 6e3d 16f1 6c3e 6cc7 03be
00000130: 0e41 b53d 7a6e 203e 30de 22bd da90 5d3d
00000140: 97a3 e1bd 24d3 5c3e 7f84 853d 982f 2d3d
00000150: fa59 03be b8e1 17be 2146 06bd bca3 2c3e
00000160: fbea 29bd 622d 35be 5423 e83d 12de b83d
00000170: ce54 203e 00bb e93d fe90 9d3d 6d8c 3b3d
00000180: 0988 9abd 3dac 703e 3836 4abd 915c 4d3c
00000190: 5ea9 d9bd b509 293e 384e f2bd b2e3 ed3d
000001a0: aaab 2f3c 573f 563c 4839 3b3e db3f 703e
000001b0: ab91 823c 005a 13be f992 333e 94f3 c03b
000001c0: 0e16 2c3d 9897 623e facb ebbd 4f3c 36bc
000001d0: 53b4 293e 30c9 d8bd 10e9 ae3d 551f a4bd
000001e0: 6df4 a93d b5b6 053e fd97 75be 2bd6 64be
000001f0: 2f9c de3d e813 b53c 0db1 c2bd 0457 383d
00000200: 9a11 98bd 54d4 50be 7500 8abd e3e2 70be
00000210: 5cc6 073d 8c75 a5bd c3be 253e 3ea9 3ebd
00000220: 0da4 be3e 4dba 55be 93e6 773b 7cfb c5be
00000230: 2e4a a63e 93e6 62bd 5d3a 693d 9ee5 2c3e
00000240: 232d d4bd 396c aebd e5a5 60bd 71f2 0ebc
00000250: 7918 aa39 ffd3 7c3c b590 16be 33d4 87be
00000260: 0617 0dbe 9799 b7bd 4318 db3c c51e 883e
00000270: 2198 2bbe 0e95 b7bd 54ac 413e 28e0 a5bd
00000280: 96b9 c13d b982 803d 2430 2cbe 4253 363d
00000290: 4023 79be b0fa fd3d 5a26 5bbc 1292 fe3d
000002a0: 292b b4bd 8ad6 bb3c fe88 d13c 4db1 773e
000002b0: 2da7 25bb 0058 dfbe f19c 983e 5d3e e6be
000002c0: f842 753e f426 5d3e 2007 e93b cf98 833b
000002d0: 2371 06be 005c 4bbd 72fc be3d b8ec 0dbe
000002e0: 21f7 773e cd38 043d 0111 49be 47ed fcbd
000002f0: f30d 1e3e fb10 4fbe d978 82be 43bf a8be
00000300: c882 a33d 6825 cd3d 398f 3ebe d3e5 1f3e
00000310: 9c6d 5bbd 52d7 633e 6288 74be e79f 7d3e
00000320: 01aa 0b3e a879 203e 042c 883d 8ed7 113e
00000330: 7f06 24be 3059 dbbe 1293 b73e 4110 92be
00000340: 17ea 693e 7741 a83e aeb8 90be 5109 263e
00000350: 1fe2 85bb c0a6 fbbd c735 97bd 0038 43bd
00000360: bb23 803d 4ac4 863e 68cf afbe 2cc6 98bd
00000370: ab05 823e a240 a9be 6d25 f8bc 2063 b43c
00000380: 5f9d 913d a192 d8bd 46b1 1c3e 7791 70be
00000390: 740d bb3e fc41 f0bd db44 603e 8b4c 7a3d
000003a0: 5c95 bf3d 45bb 5bbd 5088 15be f2bf a3bd
000003b0: e4fa 5d3e 9adc b93d a674 35be fa27 373e
000003c0: 5baf 76be b284 d8be 3e67 7f3d 24cd da3c
000003d0: 6f44 8bbe 1e2a af3d 3ed5 613d 372f 4fbe
000003e0: b8a2 193e 262b 91be 66e0 bb3e fb7c f23b
000003f0: 2973 90bd 94f3 7c3e 7353 f13d c569 8c3d
-0.07986754 0.13387878 -0.10352807 -0.17792113 0.19977757 0.16206042 0.102003805 -0.036775205
0.185671 0.19414517 -0.110637404 0.044727396 -0.027420241 0.18285075 -0.20164858 0.1017877
0.034381483 -0.15545861 -0.059735466 0.10537612 -0.051305998 -0.11548744 -0.10325515 0.13268499
-0.26567456 -0.21324039 0.08485879 -0.12113292 -0.16705322 -0.09957344 0.0037774215 0.47841343
0.10610637 -0.3174767 0.042112578 -0.3607202 0.10371553 -0.017269546 -0.07962749 0.059267454
0.14643258 -0.2412043 -0.25633335 -0.2846719 0.23153873 0.109662935 -0.13862191 0.18564658
-0.2355515 -0.15788245 0.14403228 -0.0027610476 -0.05391981 -0.0526566 0.089622766 -0.12432209
-0.0037190402 -0.30886286 0.40963018 0.32424852 -0.13153931 0.19161126 -0.06685524 -0.07820593
0.16879041 0.033801492 0.15139031 0.034314685 -0.056478485 0.14299747 -0.0043112775 0.023964234
0.16023222 0.058345772 0.23138842 -0.12869042 0.08850299 0.15667143 -0.039762676 0.05409322
-0.110175304 0.21564919 0.06519412 0.042281717 -0.12827292 -0.14832199 -0.032781724 0.16859335
-0.04148386 -0.17693093 0.11334863 0.090267316 0.1565735 0.114126205 0.07693671 0.045788217
-0.07545478 0.23503204 -0.049368113 0.012534277 -0.10628007 0.16507609 -0.11831325 0.11615695
0.01072208 0.013076625 0.1828357 0.23461859 0.0159386 -0.14389801 0.17536534 0.005888412
0.04201322 0.22128141 -0.11513515 -0.011122777 0.16572694 -0.105852485 0.08540547 -0.080137886
0.08298574 0.13057978 -0.2398376 -0.22347324 0.108696334 0.022104219 -0.09506426 0.04500486
-0.07425232 -0.20393497 -0.067383684 -0.2352405 0.033148155 -0.08079061 0.16186051 -0.04654812
0.37234536 -0.2087185 0.0037826642 -0.3866843 0.3247847 -0.055395674 0.056940425 0.16884467
-0.10360172 -0.085167356 -0.05484571 -0.008724795 0.0003244316 0.015431403 -0.14703639 -0.26529083
-0.13778314 -0.08964842 0.026744967 0.26585975 -0.16757251 -0.08963977 0.18913394 -0.08099395
0.09459226 0.06274933 -0.16815239 0.044512995 -0.24329853 0.124013305 -0.013375843 0.124302045
-0.08797295 0.022929449 0.025578018 0.24188729 -0.0025276646 -0.43621826 0.29807237 -0.44969454
0.23951328 0.2159689 0.007111445 0.004016019 -0.13129096 -0.049648285 0.09325494 -0.13859832
0.24215366 0.032280732 -0.19635393 -0.123499446 0.15435009 -0.20221321 -0.25482824 -0.3295842
0.07983929 0.100169 -0.18609323 0.15615015 -0.05357133 0.22250107 -0.23880151 0.24768029
0.1363907 0.15671408 0.0664902 0.14242384 -0.16018103 -0.42841482 0.35854393 -0.28528026
0.22843204 0.32862446 -0.282659 0.16214491 -0.0040857936 -0.122876644 -0.07383304 -0.047660828
0.06256815 0.26321632 -0.34337926 -0.07459673 0.2539495 -0.33057123 -0.030291284 0.022019923
0.07110094 -0.10574842 0.15302 -0.2349299 0.365337 -0.117313355 0.21901266 0.061108153
0.0935466 -0.05364539 -0.1460278 -0.07995595 0.21677738 0.090752795 -0.17720279 0.17886344
-0.2409033 -0.42288738 0.06235432 0.026709147 -0.27200648 0.08552955 0.055135004 -0.20232855
0.15003479 -0.28353232 0.3669464 0.0074001527 -0.07053215 0.24702293 0.11783495 0.068561114

fch.1.0.bias f4 [32]
00000000: fbe3 043e a9e3 413e 4e58 58bc ebba 71be
00000010: 0284 3b3e 886d f23c 6d9a b33d 8ebb 9e3c
00000020: ead1 d43d 64bf 803e d7b2 67be f388 3ebd
00000030: 4167 8ebe 8616 b63d 4f73 f43c 0b5d 803d
00000040: 5572 5ebd bc2c 65bd c6ea b3bd 448b ddbd
00000050: 2c05 eb3d e5b4 093e dfdd 88bd 7096 87bd
00000060: a765 d53d 7ba6 20bd 3173 ac3a 31c4 2bbe
00000070: 00f2 66be 3b5f ed3c a572 113e 5ea1 43be
0.12977593 0.18934502 -0.013204647 -0.2360646 0.18312076 0.029593244 0.08769689 0.019376542
0.103916004 0.2514602 -0.22626816 -0.046517324 -0.2781315 0.08891015 0.02984014 0.062677465
-0.054308254 -0.055950865 -0.08785014 -0.108175784 0.11475596 0.13447912 -0.066829436 -0.066204906
0.10419779 -0.03922127 0.0013156888 -0.1677406 -0.22553253 0.028976073 0.1420389 -0.19104525

fch.2.0.weight f4 [32, 32]
00000000: ef4b fe3d 63f3 dc3d 9ce0 263e 5e77 853d
00000010: 4230 bbbc f767 fabd 9ce9 4b3d 4c7a 0b3e
00000020: e3d8 f3bb c493 26be 1ebd 723d 7181 0ebe
00000030: 1ece d63d 31a0 423e c152 4b3e ce87 1a3e
00000040: 100b 19bc c374 cebc 3f65 66be 6c74 cbbd
00000050: f72e 283e 22fd 9f3d c9e5 923c 53fb dabd
00000060: bea1 1e3e 9ea9 21be 0ed5 3b3e 70ab 1abd
00000070: 8fd2 6f3c f8af 71be 2524 333e 24b0 f63d
00000080: a7db 273c c8db 8d3d 411f 083e 7313 873d
00000090: 815e a1ba c09a 8f3d 450b 5ebe 19ed d83d
000000a0: 2af8 a3bd a047 7b3d ca82 97bb e95e 963d
000000b0: 441a 0fbe 92e9 613d 07c2 bdbd 4922 e03d
000000c0: 05cf cdbc e1b7 03be 0b42 473d 9fc4 ebbd
000000d0: 3362 bcbe 73be 1ebe a7f5 4ebd ab5f 663d
000000e0: e8b7 7c3e a565 5fbe cd70 a6bd ce30 653c
000000f0: 3a3b 903d 27d8 0ebe 2d28 d2bc 29bf a33c
00000100: 065a d33c 6937 7abe fa02 2abe e407 743e
00000110: 8506 dbbd fc2f 5f3e 3162 8b3e 741e c4be
00000120: 5344 063e f6d9 383e f98e 253e 229d f8bc
00000130: 2184 a53d 5b89 13be 1e3f c1bb 7a2b 9a3c
00000140: 0eb2 d1b9 f4ef 753e c5b8 3f3d 429c 143e
00000150: 465f 323e 3065 283e 95a1 1abd 8602 56be
00000160: 266d 663d b042 283e 32bf 88be 166b 033d
00000170: 4a8a 6c3d f843 ae3d 6839 8d3e 3876 b93d
00000180: f40d 68bd f818 3d3e 19b2 3f3d 9e04 c2bc
00000190: a976 263e b566 193d 228e 27bd 9480 9e3e
000001a0: 3e97 e9bc e166 0ebe 72fa e8bc 01f7 833e
000001b0: 9516 2ebe dd3d ec3d 0a2c 533e 4130 46bd
000001c0: 68d6 143b c3e5 6fbe c01a da3d 45e8 9cbd
000001d0: c061 4dbe c96c e93b 539d de3c 4310 3ebd
000001e0: 0543 86be 5563 8bbd 0fa4 813e 91ea 38bc
000001f0: aa5c dabd 5acd bebd 7438 a5be 40d1 e03d
00000200: b84b 2e3e fe43 1fbc 08e3 d0bd 36ec 033d
00000210: 68e0 943c c4e4 95bd 1ced f63d ae03 8b3d
00000220: ae78 d9bc a7fc 52be 0918 babc 9aea b93d
00000230: 9007 1f3e a9e7 5ebd 3ceb 0abe d823 493e
00000240: 2a48 a03e 413e bd3d 0dbe 0e3e 06d9 1dbe
00000250: 3fd5 14be bf2e 2a3e 0a7a 12bd b569 f4bd
00000260: b1a4 253e 13f1 17bd 8645 043e 9987 043e
00000270: 5164 fbbd 2af1 32be 31ee 86bc 54d8 903d
00000280: 43d5 f5bd 0ed0 ccbd 9624 58be 7283 893e
00000290: 4563 40bd e6b4 b93e 5a65 413f 8d79 8bbd
000002a0: fc04 25bd 3539 0a3e e212 883d e4ef 0cbd
000002b0: 8ba7 a33d d0b8 f9bd cd14 42be ea3d 2dbe
000002c0: 72be 38bf f99d 433e 3908 07be 5ab4 b93d
000002d0: 0ead 4a3e 2dbb e6bd 41ed cfbd a9ed 0bbe
000002e0: f220 d93e 4c71 dd3e f42d b53d b49f 373e
000002f0: 6f46 d13d eb64 47be 9167 e43e 202c f8bc
00000300: a02a 2fbc 70ac f43d c770 19be 470d 8d3d
00000310: 9562 0b3e 8dbd a23d f1a4 973d 2b5c 4e3d
00000320: af39 0bbe 1a17 8cbd 1c4e afbd f236 153e
00000330: 3c78 0f3e 23ad d63d 9a03 09be 2301 84bd
00000340: 8f2e 473e f218 b7bd a9e5 6d3e f06a e8bd
00000350: 2f5f ba3d d99e 8d3b 383c e8bc d16f e7bd
00000360: fed8 1abe 5836 2dbe 1ca1 2b3e 888d 423d
00000370: 36ca 13be 22ab b83d 6f69 91bd 6d19 d23d
00000380: 1e6f afbd aefc 3cbe f9b7 b3b9 7d4b 463d
00000390: 111c 8abd 516e b93d 9b24 9bbd cfb9 d8bd
000003a0: 1827 f53d 60d5 393e cf11 1abd 8b16 6bbd
000003b0: 8dd7 87bb de19 683d 6f8b 50bd a63c 45be
000003c0: 69fd eabc 2cd4 6abd 44a4 a4bd f512 d73b
000003d0: 8e70 ba3d a3b3 973d a4e9 2c3d 0cdb 25bd
000003e0: c376 1abe 1aee 5dbd c2ae ae3d f52f 54bc
000003f0: 5024 2b3e 7f57 5fbd 91b4 08be 4c3c 2d3e
0.12416827 0.1078861 0.16296619 0.06516908 -0.02285016 -0.12226861 0.049783334 0.13620871
-0.0074416264 -0.16267306 0.059262387 -0.13916565 0.104885325 0.1900642 0.19855787 0.15090868
-0.009341016 -0.02520216 -0.2249956 -0.09934315 0.16424166 0.07811953 0.017931836 -0.106924675
0.15491387 -0.1578736 0.18342993 -0.03776115 0.014637603 -0.23602283 0.17494257 0.12045315
0.01024524 0.069266856 0.13293172 0.065955065 -0.001231149 0.07011938 -0.21683986 0.10592098
-0.08006318 0.061347604 -0.0046237456 0.073423214 -0.13974863 0.05515439 -0.092655234 0.109440394
-0.025123129 -0.12863113 0.048646968 -0.11512112 -0.3679367 -0.15502338 -0.05052724 0.05624358
0.2467953 -0.21816118 -0.08126984 0.013988687 0.070425466 -0.13949643 -0.025653923 0.019988613
0.025799762 -0.244352 -0.16602698 0.23831135 -0.10694603 0.21795648 0.27223352 -0.38304484
0.13112001 0.18051895 0.16167821 -0.030348364 0.08081842 -0.14407866 -0.0058974167 0.01881956
-0.00039996248 0.24017316 0.04680707 0.14512733 0.17419156 0.1644485 -0.037751753 -0.208994
0.056256436 0.1643169 -0.2670837 0.032084547 0.05774907 0.08509058 0.2758286 0.090557516
-0.05665393 0.18466556 0.046800707 -0.023683842 0.16256203 0.037451465 -0.040907033 0.30957472
-0.0285145 -0.13906433 -0.028439734 0.25774387 -0.17000802 0.11535237 0.20622268 -0.048385862
0.0022710804 -0.23427491 0.106496334 -0.076614894 -0.2005682 0.007123564 0.027174627 -0.046402227
-0.26223007 -0.068060555 0.2532048 -0.011286394 -0.106622055 -0.093165115 -0.32269633 0.10977411
0.17021072 -0.0097208 -0.10199553 0.03220769 0.018173411 -0.07319024 0.12056944 0.06787811
-0.026546802 -0.20604192 -0.022716539 0.0907795 0.15530229 -0.054420147 -0.13566297 0.1964258
0.31305057 0.092403896 0.13939686 -0.15414819 -0.14534472 0.16619395 -0.035760917 -0.119342245
0.16176106 -0.03709514 0.12917146 0.12942351 -0.12274993 -0.1747481 -0.016471 0.07072511
-0.12003567 -0.10000621 -0.21107706 0.26858097 -0.04696967 0.36270827 0.75545275 -0.06810293
-0.040287957 0.13498385 0.066442266 -0.034408465 0.07990941 -0.12193453 -0.18953247 -0.1691815
-0.72165596 0.1910323 -0.1318673 0.090676025 0.19792578 -0.1126617 -0.101526745 -0.13664879
0.42407948 0.432505 0.088466555 0.17932016 0.10218512 -0.19472091 0.44610265 -0.030294478
-0.010691315 0.11946952 -0.14984427 0.06887298 0.13611825 0.0794631 0.07404507 0.050380867
-0.13596223 -0.06840344 -0.0855982 0.14571741 0.1401071 0.10482242 -0.1338028 -0.06445529
0.19451354 -0.08940305 0.2323214 -0.11348522 0.09100186 0.0043219146 -0.028349027 -0.11300624
-0.15121838 -0.16915262 0.16760677 0.047498256 -0.14432606 0.09017016 -0.07100188 0.10258756
-0.08566116 -0.18455765 -0.0003427861 0.048411835 -0.067436345 0.09054244 -0.07575341 -0.10582315
0.11970347 0.18147802 -0.03761464 -0.057394546 -0.0041455687 0.056665294 -0.050914224 -0.19261417
-0.028685289 -0.05733125 -0.08039144 0.006563539 0.09103499 0.0740731 0.042215005 -0.040492103
-0.15084367 -0.05418215 0.08529426 -0.012950887 0.16713071 -0.054526802 -0.1335013 0.16917533

fch.2.0.bias f4 [32]
00000000: c40b 2fbe 7896 12be ec7e 33be d704 6f3d
00000010: f56a df3c 90e7 4ebd 9889 333e 4658 4fbe
00000020: 4ca1 383e d597 e6bc 4bdf 5abe a412 bfbd
00000030: f614 e13d c6f9 6ebc cdab 9ebd 43cc 373e
00000040: a161 133e 923b 0f3e 5128 aabd e1b8 7bbd
00000050: fe45 3dbd ba93 ca3d 7e4b 03be 1ee7 c1bd
00000060: 4a1d 37be a1c3 a33d 2f2e 69bd 1969 7abd
00000070: 6a99 583d 1b87 89bd 01de 6e3b aae1 653e
-0.17094332 -0.14315212 -0.17528886 0.058354225 0.02727268 -0.050513804 0.17532957 -0.20248517
0.1803028 -0.028148571 -0.21374242 -0.09329727 0.10990326 -0.014585918 -0.07747612 0.17949013
0.14392711 0.13987568 -0.08308471 -0.06145561 -0.046209328 0.09891458 -0.12821767 -0.0946791
-0.17882267 0.07996298 -0.05692881 -0.061135385 0.052880682 -0.067152224 0.0036448243 0.22449365

fch.3.0.weight f4 [32, 32]
00000000: 23f5 0b3e e590 143e 91a0 d13d ccc5 03be
00000010: 792d 4ebd f5bf c23c 4e0e 8dbe c296 463e
00000020: b675 7d3d ca2b bb3e cc0b ff3d 0228 21be
00000030: 1d86 80bd b5f4 ebbd 1dcc a63d 2f77 b83c
00000040: 9b04 f4be 01e6 003e 7f92 c6bd 259b 393e
00000050: 2a58 45bd ea13 ed3c 9151 e6bd 924f 0c3d
00000060: e8c1 bfbd 7514 ce3d c65d 423d a19b 8abd
00000070: b22e 22be ae10 8c3d 6770 2c3d ceb1 01be
00000080: a7e7 7bbe cabe e1bd 9797 a73d 082c b9bd
00000090: bf03 86be 89d7 2cbe 184e 5f3e d291 bb3e
000000a0: 6c41 983e 031f 82be 7e6c 45be 7c95 1e3e
000000b0: b0c2 19be 3570 ae3e d067 1bbe f0b6 4dbe
000000c0: 348f 7b3e df74 61be b092 6f3e 0539 e0be
000000d0: 6287 0ebe 2cb5 ecbd 389c 953e 7385 873e
000000e0: d10d ec3d 8956 acbd 1a33 113e 9dcf ebbb
000000f0: 46cc 5ebe b266 b03d aac4 753e 5d28 00bc
00000100: e59c 4f3d ee52 913d f820 3bbd b3a6 033e
00000110: 2348 033e fce6 5fbb 625e 803e ed06 bdbd
00000120: 3e73 9fbd ce28 86bd 5188 073c 328d 17be
00000130: c715 f7bd 277a 753d f151 04bd 6f88 513e
00000140: 8fc7 ea3d 9101 3bbd 6a50 efbd a1fd b63d
00000150: 3b37 8cbd 7b4c 653d 348c dcbb de64 09be
00000160: 0fae 763c 8ea9 053a ccc6 a73c cf6e 0fbe
00000170: 42c1 4f3c 6be3 e63d e3a8 923c 8b19 11bd
00000180: 1150 66be 823a 2cbe 3fb2 ac3d e4ea d73c
00000190: d5b1 9d3d 85e8 89bd 753f 253e 0ea7 91be
000001a0: 6702 90bd c6f8 20be 3ae8 6bbe 81eb 92bd
000001b0: cd9b 4c3e eeeb 12be fd28 3c3d 34e7 eabd
000001c0: 660d 663e 1139 3abd 88fd 4c3e 9631 84bd
000001d0: 8678 213e a80b acbd f2a7 19be 8167 a83d
000001e0: 7461 aabd 61e9 78bd 1f13 13be 9bfe cd3d
000001f0: b09d fdbc 12e4 89bd 07b1 d8bd 4bd2 023e
00000200: 189b c73d a607 43be 28c7 553e 49f0 5fbe
00000210: 5ba3 94bd c422 95be 5b81 6cbd b341 bf3d
00000220: 9152 0a3d 53f8 bcbd dadf 6e3e 8eba e5bd
00000230: e668 41be bb33 eb3d 080c 07bc 452c 33be
00000240: 5bdd 30be d715 763d 651e 03be 6874 8b3c
00000250: 712c fdbd 4dd1 343d ac54 9a3d 39d1 ac3b
00000260: 1313 523e b280 cc3d 9847 c93d f446 223d
00000270: 822d 85bd e71d 3cbe 8acc 77bd 07b7 2dbe
00000280: 555c f6bd aab3 da3d 88b8 573d 857c 36bd
00000290: ba82 1e3e bd86 943e 1d99 c83d e80c 86bd
000002a0: f62b 313d 2fac 263d 3256 dc3d 224f 023e
000002b0: 39d5 de3d 8ba2 c03d c338 063d dbd8 b83c
000002c0: 4fbe 48be 4e21 243e 9390 89bc f786 0bbe
000002d0: 7927 fe3d 8779 603e c3d9 073d f3c9 f9bd
000002e0: 312f 103e d1dd 12be b521 193c a077 83bd
000002f0: 0983 583d 6f5a 2d3e 4ebd dd3d f710 04be
00000300: 0049 2fbe fb89 e9bd 8f2f 80bd 4196 e13d
00000310: 7a02 013d db08 2c3e e9de 2b3e 8286 1fbe
00000320: 5a6b 3a3b cab8 173e 2793 76be 40ea 0c3e
00000330: 6d80 10bd e21a a4bd d720 a7bd 352d 463e
00000340: 165c b9bc 5619 103e 9908 2dbe 0576 f53c
00000350: 8813 e0bc 86f7 d63d 22bc be3d 5d97 1ebd
00000360: 2d81 33bd a229 ffbd f34c c4bd 4a95 db3d
00000370: 3eb6 503d 1edd 8b3e c807 72bd 16b2 323e
00000380: 1cda 123d 10ab ec3d 7516 013e d9cf 6dbe
00000390: 3e87 bc3d 138c 3ebe 5194 05be 8653 183e
000003a0: de3b 5f3d 5144 80be 12dc 6c3d c328 19be
000003b0: d7c3 57be 0e1a 87bd 3513 ed3c aa17 65be
000003c0: b64b 803b e092 2cbe 445c 263e a927 833d
000003d0: 1a83 bf3c 30ec 44bd 5e51 923d 8e11 223e
000003e0: 86aa 3d3c c98c 82bd 2c97 5b3e 2007 6e3d
000003f0: 6d14 013e 943a 37be f4a2 b7bd dfb3 fcbd
0.13667731 0.14508398 0.10235704 -0.12868422 -0.050336335 0.023773173 -0.27549976 0.19393447
0.061879836 0.36556846 0.12453422 -0.15737918 -0.0627558 -0.115212835 0.081444 0.022517769
-0.47659764 0.1258774 -0.09695911 0.18125589 -0.048179783 0.02894016 -0.11246026 0.03425557
-0.093631566 0.100624956 0.04745271 -0.06767965 -0.15838125 0.06839119 0.042099383 -0.12665483
-0.24600087 -0.11022718 0.0818321 -0.090416014 -0.26174733 -0.16879095 0.21807134 0.3663469
0.29737413 -0.25414285 -0.19279668 0.15486711 -0.15015674 0.34069982 -0.1517632 -0.20089316
0.24566346 -0.22017239 0.233958 -0.43793502 -0.13918832 -0.11557993 0.29220748 0.26469
0.11526073 -0.08414943 0.1417965 -0.0071963803 -0.21757612 0.086133376 0.24000803 -0.007822123
0.050686736 0.07095896 -0.04568574 0.1285656 0.12820487 -0.0034164777 0.25072008 -0.092298366
-0.077856526 -0.065507516 0.008272246 -0.14799955 -0.120647006 0.059930947 -0.032304708 0.20462202
0.11463844 -0.04565579 -0.1168526 0.089350946 -0.06846472 0.05598114 -0.0067305807 -0.13417384
0.015056147 0.0005098813 0.020480536 -0.14007114 0.012680354 0.11273845 0.017902797 -0.03542475
-0.2249148 -0.16819194 0.08432435 0.026357122 0.076999344 -0.06733803 0.16137488 -0.28447765
-0.07031708 -0.157199 -0.23037806 -0.07173825 0.19981308 -0.14347813 0.045937527 -0.1146988
0.22466049 -0.04546458 0.2001859 -0.0645477 0.15768632 -0.08400661 -0.15005472 0.08222867
-0.08319369 -0.060769442 -0.14362763 0.10058328 -0.03095898 -0.06732954 -0.1058064 0.12775533
0.09746379 -0.19045886 0.20876753 -0.21869005 -0.0725772 -0.29128087 -0.05774055 0.09338703
0.033770148 -0.092270516 0.2332758 -0.11217223 -0.18887672 0.11484476 -0.008242615 -0.17497356
-0.1727194 0.06007942 -0.12804563 0.01702328 -0.12361992 0.044144917 0.07535681 0.0052739647
0.20515089 0.09985484 0.098281085 0.039618447 -0.065028206 -0.18370782 -0.060497798 -0.1696435
-0.1202933 0.106787995 0.052666217 -0.044552345 0.15479556 0.29009047 0.09794829 -0.065454304
0.043254815 0.04069155 0.10758628 0.127255 0.10880513 0.094060026 0.032768976 0.022564342
-0.19603847 0.1602833 -0.016792571 -0.13625704 0.124098726 0.21921359 0.033166658 -0.12196722
0.14080502 -0.14342429 0.009346415 -0.06419301 0.05285934 0.16929029 0.10827123 -0.12897097
-0.17117691 -0.11403271 -0.06259071 0.11014987 0.031496502 0.16800253 0.16784252 -0.15578654
0.0028445334 0.14816585 -0.24079572 0.13761234 -0.035278726 -0.0801294 -0.081605606 0.19353183
-0.022626918 0.14072165 -0.16897811 0.029963503 -0.027353063 0.1049643 0.09313227 -0.03871857
-0.043824363 -0.12459113 -0.095849894 0.10721834 0.05095505 0.27317137 -0.059089452 0.17450747
0.035852537 0.11556065 0.12606223 -0.23223819 0.09205483 -0.18608122 -0.1304486 0.14875612
0.054500453 -0.2505212 0.057827063 -0.14956956 -0.210708 -0.065967664 0.028939823 -0.22372308
0.0039152754 -0.16852903 0.16246134 0.06404049 0.023377944 -0.04807681 0.07144426 0.15827009
0.0115763005 -0.06374509 0.21444386 0.058112264 0.12605448 -0.1789344 -0.08966628 -0.12338995

fch.3.0.bias f4 [32]
00000000: 1ae6 24be 7335 7cbd e26c 683e 38a7 343d
00000010: e84d 033d 7c3f 0dbc 21cf 503e 017d 7d39
00000020: 3095 0cbe 7e76 14bd e2f0 643e 79fe 8c3d
00000030: d967 093d 2e43 813c a5fc 5dbe 13ee 31bd
00000040: fc91 1a3e 97dc 8b3d c0f2 373c 307c 0ebd
00000050: 8050 79be fbdc c93d 0009 83bc cdb0 84bd
00000060: 8a66 2d3c 93a7 30be 8a3f b6bd e52e 39be
00000070: 73c9 a8bd ffca e4bd 1acc fe3c 3cc7 673d
-0.16103402 -0.06157441 0.22697785 0.044104785 0.03205672 -0.008621093 0.20391513 0.00024174528
-0.13728786 -0.036245815 0.22357515 0.06884474 0.033546302 0.015779104 -0.21678407 -0.043439936
0.15094751 0.068291835 0.01122731 -0.034786403 -0.24347115 0.09856602 -0.015995502 -0.064790346
0.010583529 -0.17251424 -0.08898838 -0.18084295 -0.082415484 -0.11171531 0.031103183 0.05658649

fch.4.0.weight f4 [32, 32]
00000000: a184 eb3d c5a5 123e 2801 203e f0ac ff3c
00000010: e069 e73c e3f0 dd3d d87b 0abe 5c26 003d
00000020: e241 4fbc afcf 4bbc 9470 75bc 1b78 813c
00000030: c541 14bc 2a53 c9bd 69c0 2fbe 8d97 f4bd
00000040: a8e4 993e ea85 3d3e 0c12 15be 5eab bdbd
00000050: 81bc b23d f7c8 a03c 9690 6c3c 6f2b 9c3d
00000060: d043 453c d768 5ebe 4f8b 17be 000a 08be
00000070: 0df9 fe3d e13a e3bd 23f3 883d ec88 3d3e
00000080: 7049 423e b01e 773d 35e4 c03d acef 1b3d
00000090: ebc2 23be df10 743d 1750 2d3e 3bcd 373b
000000a0: c68b 88be 9edd a03d deaa 3c3e 503a 2cbe
000000b0: a181 343e df26 22be e06f 5dbb 9959 f2bb
000000c0: 0a2d 193e 3e3a 353d e765 36be 7a0a 4f3e
000000d0: 4fa5 09be 1056 19bd 5764 01bc 578e 1fbe
000000e0: 64e6 c73d 0398 473d 3482 ec3d af9b 5dbd
000000f0: 1761 29be 136c 893c c8ee 1c3e b341 66bc
00000100: 7a73 333e 4948 37be e190 69bd 6707 b8bd
00000110: 9d10 023e dfc1 acbd 5d01 23bc 6de7 ba3d
00000120: 9448 103e 198b a43d d765 01be a176 013e
00000130: cb58 a0bd 2d96 a73b 2b7c 1c3e 01ad 103d
00000140: f298 7cbe 2544 17bc 1a5f 6b3d b60b 013e
00000150: 043d 9b3a 07c0 69b8 9c4b 703d 9825 ed3d
00000160: d2f5 31bd ad8f 1e3c 95fd df3d 4887 333e
00000170: 15ca 813d 303d 0abe 5665 a6bd 8e5c 103e
00000180: e99a 073b 2983 81bc d4e5 383c 38f8 12be
00000190: 09dc 5d3e e1d4 f0bd 5970 50be 94f1 5bbc
000001a0: 183d a1bc ba1d aebd 6778 803c 47f7 4b3d
000001b0: 7867 27be 5954 673e 125d 123e b068 9abc
000001c0: f2ab 44be 1f8e da3d 5153 763e c482 17be
000001d0: de35 223d 72cc b1bd 2316 983d cc4b 5dbc
000001e0: 796d fe3d c0c4 6e3d 104e 86bb fffd a6bc
000001f0: 738b d03d 37fb 00bd 5a9f bdbd 0862 003e
00000200: b0f4 3fbd ab3a 633c 69fc 1fbe 0921 0f3e
00000210: 2010 b9bd 43ab 843d 73c9 09bd e442 bb3d
00000220: f106 7d3e ebb5 bebd 86a1 763d 7078 95bc
00000230: 6d94 ef3d 42fa 4c3e d415 d3bc 8f5f 243e
00000240: bb8a c1bc ad50 1b3e 7955 48be 6c91 de3c
00000250: 06dd c33d 7474 753d b78d a5bb 7233 7bbd
00000260: c23f b5be d240 363e 21e9 79bd 1575 07be
00000270: 2c68 f73d 4224 323d 54e9 e5bd 90a8 7e3e
00000280: 1f98 1abc 1f5a c53c 27c7 983d 5057 e43d
00000290: 407a 813e 6b02 253e 8a13 003e 9015 cdbd
000002a0: 98a5 513d ebae ff3c 7276 2bbd d998 e33d
000002b0: 8961 c7bd 7da2 a13b fe16 883d 77c0 a73d
000002c0: ac3b 033e 5684 fc3c 0213 afbe e179 ff3d
000002d0: d401 8e3e 6075 f3bd a6f0 59be cddd 613c
000002e0: 1be5 bfbd 991e ccbd e303 073e fce3 e7bd
000002f0: 42fa 9dbd 3d96 2abe c9a9 70bd 7b4d 823d
00000300: 0329 0ebe a450 ef3d 6563 c2bc c7af 1f3c
00000310: 58fa 80bd 4e52 c1bd d972 fb3c 1523 c23d
00000320: 8335 9fbd e4bc d4bd 625b f23d 7a10 cdbd
00000330: d440 463e b73b 9c3d 2a80 63bc 61cf 7ebe
00000340: 0472 3c3e d8e4 d13d ef00 1abe 2c3b 3c3d
00000350: 9573 8cbd 60f4 903d 9e51 843d 1bcd 1dbe
00000360: 7ffb 14be 543b b03b b240 343d 30f4 68bd
00000370: bc13 103e f8ba 5a3c 7427 cdbd 52f0 ed3d
00000380: 8b1e 983d c84b 2dbe 63b3 eabc f198 273e
00000390: a846 863d 252c f23d 3524 fcbd 6866 ae3d
000003a0: ccea e8bd 195c 2cbe 14d6 55be 7628 063e
000003b0: a079 443d 3d84 093e 25a6 bf3d 9a16 11bd
000003c0: cdf8 13bb 7cd6 16bd db47 883e ad76 a53d
000003d0: 1eef 183d 90e0 0abe 1e80 d23c 458e 873d
000003e0: 335b 6d3d 4e1d 183e 0c10 0f3c 451a 73bd
000003f0: 8ffc a13b 55d9 79bd c11c 9cbc 8368 203e
0.11499906 0.14321049 0.15625441 0.031210393 0.028248727 0.10836961 -0.13523805 0.031286582
-0.012649985 -0.012439652 -0.014980454 0.015804341 -0.009048884 -0.098303154 -0.17163242 -0.119429685
0.30057263 0.18508115 -0.14557666 -0.09261201 0.087273605 0.019627078 0.014438769 0.07625472
0.012040094 -0.2171968 -0.14799236 -0.13285065 0.124498464 -0.11095215 0.06687 0.18509263
0.18973327 0.060332 0.09418527 0.038070366 -0.15992324 0.059586402 0.16925083 0.002804591
-0.2666914 0.0785477 0.18424556 -0.1681912 0.17627575 -0.1583514 -0.0033788607 -0.007395935
0.14958587 0.044244997 -0.1781231 0.2021884 -0.13441966 -0.03743559 -0.007897458 -0.15581642
0.097607404 0.048728954 0.11548272 -0.05410355 -0.16540943 0.016775167 0.15325463 -0.01405375
0.1752452 -0.17898668 -0.057022933 -0.08985787 0.1270165 -0.084354155 -0.0099490555 0.09126172
0.14090186 0.08034343 -0.12636505 0.1264291 -0.07829436 0.005114338 0.15281741 0.03532124
-0.24667719 -0.0092325555 0.057463743 0.12602124 0.0011843746 -5.573037e-05 0.058665857 0.11579436
-0.043447323 0.00967781 0.10937039 0.17532074 0.06337372 -0.13499904 -0.08124797 0.14097807
0.00206917 -0.015809612 0.011285264 -0.143525 0.21665968 -0.117593534 -0.20355357 -0.013424296
-0.019682452 -0.08501764 0.015682412 0.04979637 -0.16348064 0.2259077 0.14293316 -0.018848747
-0.19206217 0.10671639 0.2405522 -0.14795977 0.039602153 -0.08681573 0.07426097 -0.013506841
0.12423224 0.058293104 -0.0040986612 -0.020384787 0.10182848 -0.031489577 -0.092589095 0.12537396
-0.04686421 0.013868968 -0.1562363 0.13977446 -0.09036279 0.06477978 -0.033639383 0.09143618
0.24709679 -0.09312042 0.060212635 -0.018245906 0.11698232 0.20017341 -0.025767244 0.16052078
-0.023625722 0.15167494 -0.19563855 0.027168952 0.09563641 0.05992551 -0.005052294 -0.06132836
-0.35400206 0.17798164 -0.061013345 -0.13228257 0.12080416 0.04349161 -0.112261444 0.24868989
-0.009435683 0.024090825 0.0745986 0.11149466 0.25288582 0.16114204 0.12507454 -0.10013878
0.051183313 0.031211337 -0.041861005 0.11113138 -0.097354 0.0049327 0.066450104 0.08191007
0.12815732 0.030824821 -0.3419419 0.124744184 0.2773577 -0.11887622 -0.21283206 0.013785792
-0.0936987 -0.099667735 0.13185076 -0.113227814 -0.077137485 -0.16658874 -0.05875567 0.063624345
-0.13882832 0.11685303 -0.023729036 0.009746498 -0.06297749 -0.094395265 0.030694412 0.094793476
-0.077738784 -0.103875905 0.11833836 -0.10012908 0.19360667 0.07628577 -0.013885537 -0.24883796
0.18402869 0.102487266 -0.15039419 0.04595487 -0.06857983 0.07077861 0.0646088 -0.15410273
-0.14549063 0.005378166 0.04400701 -0.0568735 0.14070028 0.013350241 -0.10017291 0.11618103
0.074277006 -0.1692344 -0.028649991 0.16366936 0.06556445 0.11824826 -0.123115934 0.08515626
-0.11372909 -0.16832007 -0.20882446 0.13101372 0.047967553 0.13429351 0.093578614 -0.035421945
-0.0022578717 -0.036825642 0.2661732 0.08079276 0.037337415 -0.13562226 0.025695857 0.06618933
0.057948302 0.14854929 0.008731853 -0.059351224 0.0049434374 -0.06099828 -0.01905668 0.15664868

fch.4.0.bias f4 [32]
00000000: 34c0 99bc 1f19 4b3e 36dd d2bb 1dd7 d4bd
00000010: f145 fbbc 4224 02be b5f4 833c 6508 11be
00000020: a0fa 92bc 8596 d3bd c2b1 98bd 2c36 543d
00000030: b7d3 3bbd 58e4 94bc bb4b 1e3d c06d bbbd
00000040: e440 bebc c03c 83bc bd8e 603e 53f7 093e
00000050: 32c2 253e de4b a43d 9eff 0dbe 9ae3 943c
00000060: fba1 b8bd b6ec 353d 303a 4ebb 0e97 78be
00000070: 86cc 30be 5442 c23d 3fd5 e3bd 4e61 23be
-0.018768407 0.19833802 -0.006435062 -0.10392592 -0.030673 -0.12709144 0.016107896 -0.14163359
-0.017941773 -0.10331444 -0.074557796 0.051809475 -0.045856204 -0.018175289 0.03864644 -0.091517925
-0.023224302 -0.016020179 0.2192945 0.13473253 0.16187361 0.08022283 -0.13867041 0.018174935
-0.0901527 0.0444152 -0.0031467788 -0.24276373 -0.1726552 0.09485307 -0.11124658 -0.15955088

fch.5.0.weight f4 [32, 32]
00000000: 2b2d 073e d404 edbc 462b e53d 2129 abbd
00000010: f55c 8b3d 1b3a 5b3d fa78 e7bd ecda 783d
00000020: 7f4d 373d 5afd 08be ac26 0cbe cc76 8dbd
00000030: 2743 d53d 0d25 043e e2eb 48be a586 15be
00000040: e4cf e93d ff1e 403e ec3d 683d 470e 4dbe
00000050: 37f7 d1bd f3db aa3d 4bc0 a5bc 699f 163e
00000060: 7da8 84bd bdf5 2abe 2469 153e 2b28 a2bd
00000070: d94f a43d 8f87 4f3d 7e33 cdbd 82b4 74bd
00000080: 6ff0 87bc 6d18 83bd ef61 303c cd8e ffbd
00000090: cb4e f03d 02ab ba3d 0cb7 3cbe ee12 083e
000000a0: ecce 29be d9d0 e6bd 01a4 3a3c a79c 85bd
000000b0: 5f03 66bd 86d1 32be a4af 483b 4e28 5437
000000c0: 2ce4 203e 0932 ba3d f70a a8bd 18e7 003e
000000d0: 7ea4 00be 4d04 93bd afdc c53d b1e0 37bd
000000e0: d633 bcbd 7a9a aebd 849f 1d3d 9fd3 bf3d
000000f0: 7c56 febd 2f74 423e 69a4 a53e 0274 843d
00000100: 7647 12bd 4a28 27bd a139 5abd 217f 19be
00000110: 37c0 21be abea a4bd b64a 36bd f060 41be
00000120: e32b 41be 0b19 1a3e 3056 83bc 1a8a a33c
00000130: cdc6 233e 867c 0dbd ec25 463d c999 27be
00000140: fec3 773d 8d91 74bd cb9f e8bd 1d8f afbd
00000150: cd7d 2c3d 65ff ef3c 60dd e4bb c825 253e
00000160: 74f6 bb3d b8c0 393e 22d6 d23d af63 f9bc
00000170: 183b 043d 1fc0 163d 9aed d7bd cfe8 313e
00000180: ef99 cabd 3e68 723e 5bb5 c3bd 69cb 3c3d
00000190: 7353 39be c8e3 5abe 10cb 35bc 1dd2 43be
000001a0: 8aba 8cbc 8990 8abc f35c 69be 3fa1 c23d
000001b0: b049 0c3e d59f a23c 971e 12bb e839 b0bc
000001c0: bdd6 7bbe 42d9 90be 552f 003e f763 2a3e
000001d0: 2122 133e e715 233e 877f 3ebe 2995 90bb
000001e0: 73c4 2fbd eedb 603e 1664 8b3e 4624 d4be
000001f0: e4fc 87be 2e1c a5bd c539 5ebe ed0a 0fbe
00000200: d6e3 4e3e 8559 ecbd 50e7 1bbe 25ca 01be
00000210: 8b06 953d 69d4 243e 8a0d 413e a98a 41be
00000220: 4735 19bd 0516 b8bd a0e7 303e 1c1c a63d
00000230: 346f 5abc a832 af3c 5209 3c3e 3636 4e3e
00000240: 5faf 1cbe 4c03 31be af09 f83d cd07 263e
00000250: 09e0 203c ed38 c7bd c054 9dbd a5e8 3abe
00000260: 6d24 b9bc ff61 043e 4273 05be b2a3 4d3d
00000270: 582c 12be 2937 733e 3c18 8d3d 060b 073e
00000280: 3f77 3a3d 00b6 a53b 2701 683d c870 1abd
00000290: daad 8a3e df6b a6bb fa38 bdbd ae17 04be
000002a0: 80e4 5cbd 0a3c 31be fc87 db3d 4c1d 7eba
000002b0: 346f 79bd 5a96 c73d 31f9 0c3d 8654 523d
000002c0: 7fd0 9ebc 21fc 55bd 7836 593e bfca 13be
000002d0: 37a2 893d 9a7d d5bd bed9 173e ae0c 6cbe
000002e0: 24b3 b43c 38ac 393d b983 0fbd 3547 24bc
000002f0: baa6 ab3d 1160 55bd 4346 83bc 8b62 46bd
00000300: e243 593d c406 d93a 8e68 ed3d 2229 cabd
00000310: 2c8c 92bd 0ea8 1bbe 14b6 813c 8653 bc3d
00000320: df39 bf3d 326f 87bd 6d48 d6bd bc1e e83d
00000330: a6df 133e 01bb 54bd ced8 02be b11e 93bc
00000340: 3769 e83d 36a1 9fbd 8cba eabd 001b 783d
00000350: 291c 413e 76ef 1b38 89bf 1bbc 136f 87bd
00000360: 5881 aabd bfcd 08bd 4ee6 03bd 8bff a5bd
00000370: 056a ed3d 0527 af3c 194a a93d efa7 e93d
00000380: 9ff7 563e f42c 05be ca2d 993d 3b0f 2d3d
00000390: 4bbf 583d 1316 bb3d fb2e 53bd 990b 3cbd
000003a0: 82cf 0b3e 53b5 4cbe c3e2 3a3e decc 0f3e
000003b0: 9af7 83bc 9d9b 7a3d bd4e 29be 4caa 9b3d
000003c0: 5581 293e 0821 c9bd 24bb 423e c927 2f3e
000003d0: 5964 413e 6701 323e ddb1 173e ac16 ddbd
000003e0: 4f6c 1bbe cc0b d7bd 9c7c 143e b427 18be
000003f0: b502 11bc f8db 8bbd bbe3 8ebc f7c8 2a3e
0.13200824 -0.028932966 0.111898944 -0.08357454 0.068048395 0.05352221 -0.11302371 0.060755655
0.04475164 -0.13377896 -0.13686627 -0.06907424 0.10413199 0.12904759 -0.19621232 -0.14602144
0.11416605 0.18761824 0.05669968 -0.20024978 -0.102522306 0.08342733 -0.020233294 0.14709248
-0.06477449 -0.16695304 0.14590889 -0.07917818 0.08023042 0.050666388 -0.10019587 -0.05974246
-0.01659414 -0.06401143 0.010765537 -0.12478409 0.117337786 0.091146484 -0.18429202 0.13288471
-0.1658284 -0.11270303 0.011391641 -0.0652402 -0.05615556 -0.1746274 0.0030622268 1.2645569e-05
0.1571204 0.09091575 -0.082052164 0.12588155 -0.12562749 -0.07178555 0.09661233 -0.044892017
-0.091895744 -0.08525558 0.038482204 0.093665354 -0.12418839 0.18989633 0.32351997 0.06467439
-0.03571268 -0.040809907 -0.053277615 -0.14989902 -0.1579598 -0.08052572 -0.044504844 -0.18884635
-0.18864398 0.15048616 -0.016032308 0.019963313 0.15993805 -0.034542583 0.04837601 -0.16367258
0.060489647 -0.05970912 -0.11358603 -0.085722186 0.04211216 0.029296586 -0.006984398 0.16127694
0.091778666 0.18139923 0.10294749 -0.03044304 0.03228292 0.036804315 -0.10543366 0.17373966
-0.09892642 0.23672578 -0.09556075 0.046092425 -0.1809824 -0.21375954 -0.011095777 -0.1912312
-0.017178793 -0.016914623 -0.22789364 0.095034115 0.13699985 0.019851604 -0.0022296065 -0.021511987
-0.24593635 -0.28290755 0.12518056 0.16639696 0.14368488 0.15926324 -0.18603335 -0.0044123125
-0.042911958 0.21958897 0.27224797 -0.41433924 -0.26560128 -0.080620155 -0.21701725 -0.13969012
0.202041 -0.11540512 -0.15224957 -0.12674768 0.072766386 0.16096653 0.18852821 -0.18900551
-0.037404325 -0.08988575 0.17275858 0.0811083 -0.013332177 0.02138646 0.1836293 0.20137867
-0.15301274 -0.17286414 0.12111222 0.16213913 0.009819039 -0.097276546 -0.076821804 -0.1825281
-0.022600377 0.12928008 -0.13032249 0.05020494 -0.14274728 0.2375151 0.06889388 0.13187799
0.04552388 0.0050570965 0.056641724 -0.037705213 0.27085763 -0.005078777 -0.09239383 -0.12899658
-0.053928852 -0.1730806 0.10719296 -0.00096936966 -0.060897067 0.09745474 0.034417335 0.05135014
-0.019386528 -0.052242402 0.21212184 -0.1443281 0.06720393 -0.10424347 0.14829156 -0.23051712
0.022058077 0.045330256 -0.03503773 -0.010026743 0.0838141 -0.05209357 -0.016024714 -0.04843382
0.053043254 0.0016557802 0.11592208 -0.09871127 -0.07155642 -0.15200827 0.015833892 0.09195618
0.0933721 -0.06613006 -0.10463033 0.11333987 0.14440784 -0.051936153 -0.12778017 -0.01795897
0.11348193 -0.077944204 -0.11461362 0.060572624 0.18858398 3.7177895e-05 -0.009506115 -0.066129826
-0.083254516 -0.03339934 -0.032202058 -0.081053816 0.11592487 0.02138091 0.08266086 0.11408984
0.20992897 -0.1300543 0.07479437 0.042250853 0.052916806 0.0913507 -0.051558476 -0.045909498
0.13653377 -0.19991045 0.18250565 0.14042994 -0.016109277 0.06118356 -0.16533943 0.07600841
0.16553243 -0.09820753 0.19016701 0.1710502 0.18885936 0.17383347 0.14813943 -0.1079534
-0.15178035 -0.10500297 0.1450066 -0.14858896 -0.008850743 -0.06829065 -0.017442575 0.16678225

fch.5.0.bias f4 [32]
00000000: 36fd 8abd a5e3 d13c 4688 b9bc 4f25 cb3d
00000010: 2adb 02bd 38ae 933d 4083 1c3e eafc a5bd
00000020: 25b2 d7bd 039a 063c 6e8f bc3c b540 cabd
00000030: d0e3 0f3e 792e 2fbd 5101 073e 9608 07be
00000040: f85a 9a3d f1c0 243d b6c9 373e ed76 8f3d
00000050: c9fa 2fbe 3e32 68bd e2d4 dd3d ca87 ed3d
00000060: 350b 1b3d 0722 0a3e c5ba 42bd c27f 7ebd
00000070: 6966 51bd 121d 24be a042 de3b 3639 1a3e
-0.067865774 0.025621245 -0.022647988 0.099192254 -0.031947292 0.07210964 0.15284443 -0.0810488
-0.10532025 0.00821543 0.023017611 -0.09875623 0.14051747 -0.04276893 0.13184096 -0.13186869
0.07536882 0.040223066 0.1794804 0.07005105 -0.1718551 -0.05668854 0.1083162 0.11598165
0.037852485 0.13489543 -0.0475414 -0.062133558 -0.051123057 -0.16026714 0.0067828447 0.15060887
